Intro to Machine Learning(ML)/Assignment3/cifar_net.pth (torch_old, 123886 bytes, 4 tensors)

linear.weight f4 [10, 3072]
00000000: 8e16 c93b 804e 823b ac9f 13bb f350 1d3c
00000010: bea7 1d3c 75a7 60bb d1af 643c ae35 6bbc
00000020: 523e 06bb 63ab 463c 7ad8 843c 8d18 8c3c
00000030: 724d 78bc 1b5d 5abc 08cc 9b3c 2455 8f3c
00000040: 343d f139 0fe3 253b 67d0 f03b 5e18 5dbc
00000050: dc0b aa3a a7a6 753c 0d53 453c 8b70 143c
00000060: 9ee2 24bc c41f 55bb a976 f93b 0db4 d33b
00000070: 82e2 643c 337a 1b39 fd61 30bc 2448 bd3b
00000080: 41a2 7fbb d2b0 e9bb 52bf 8c3c d48b 05bb
00000090: 7da8 77bc 5747 d2bb c17b 78bc b136 e9ba
000000a0: c55e df3b 5d81 483c d839 0bbc bd8c 37bc
000000b0: 9758 8bbc 4312 613c 4da8 853c e7ba e33b
000000c0: 251f 403c aeef 623b 4cc5 0c3b 170c 053c
000000d0: 3ee3 de3b 4ea0 bdbb c138 0d3c 0300 d4ba
000000e0: 5575 dfbb e2be 273b d3aa f8b9 2cc7 433c
000000f0: 5a8b ba3b 751b 8bbb 1dc8 75bc 06e1 8e3c
00000100: 2541 c0bb bfbb 643c 1c1d 12bc 6364 893c
00000110: 2944 62ba 6d7d c339 bcb6 223c 3d47 54bc
00000120: 0e42 12bc c4e1 393b 255c 813c 60fd f23b
00000130: 17a1 b0bb 744c 85bc b48c 7abc 281c 47bc
00000140: 38f7 45bb a748 6dbc 2d52 8b3c 8662 f03b
00000150: 6411 c73b 621e 07bc 5c14 b7bb b397 29bc
00000160: e68d 67ba b61f 333c b0a3 f13b 6979 43bc
00000170: ddbb 36bc 4a79 02bb 8656 c1bb 9160 8b3c
00000180: 6f65 033b f2dc 05bc 19a1 633c 7ebb 22bc
00000190: a916 88bc 678b 70bc b22c 97bb 9367 043c
000001a0: 03b4 2bbb c1f6 113c 47d7 33bc 2720 a63a
000001b0: 4e36 a73b 63ac 2dbc 1f83 053c fba1 9c3c
000001c0: e6cb cc3b 998a 65bc b348 80bc 2976 83bc
000001d0: 7759 233c 3802 483c 7e55 eabb ef49 50ba
000001e0: 8cfd 8c3c 6fb4 a1bb b9a2 f03a 87f8 3b3c
000001f0: bd70 4cbc fcf9 8c3b 518d aabb eaae 6cbc
00000200: 0d7e e2bb 1f4e bfbb 6442 8f3c 5835 3cbc
00000210: 4c28 42bc 7909 18bb 18d6 4e3c a0f2 7cbc
00000220: eb70 8d3c 9c91 c63b 1107 cb3b be24 1abc
00000230: b0b4 233c f600 8a3b 2dd5 abbb 2f24 17bc
00000240: b7d0 47bc 1c6e 2a3c 8ff5 dbbb 7143 263c
00000250: e58c 1b3c 769b 3f3c b816 243c a30d 40bc
00000260: 2c90 b239 94d1 703b 8ed5 1abc 0cd6 d0ba
00000270: 01b9 6abb f15c 853c 4ee9 683c 644e 2abc
00000280: 0056 8a3a 99d2 353c d9bc 82bb 1c47 7c3c
00000290: 7b21 2dbc 0c45 6f3c c6fe 29bc f98a 51bc
000002a0: bb2c 083b e64b 7dbc 8aa5 5fbc 2e9e 4f39
000002b0: 0ea3 e2bb 5c7c ef3b 32a6 4ebc d3af 463c
000002c0: f523 55bb 81fd b63a 760f 9b3c 61fd cf39
000002d0: 7d52 953c 0537 34bc 2371 933b b0ec 4cbc
000002e0: fcd2 723c 4450 44bc 9965 05bc 3609 d33b
000002f0: 1b25 67bc a56a 4ebc f27b c23b 45df 643c
00000300: 65a9 31bc 6a76 943c 13b8 82b9 d63f c73b
00000310: 17aa 8f3b 6c8e 3ebc 01fd 733c f8e6 f7bb
00000320: e2ea 0f3c 8edd 6f3b e6c2 4ebc c990 ffbb
00000330: 9d66 893c 5f2a 4abc 7592 843c 677a 5bbc
00000340: 3c4f 883c d198 96bb 2586 7cbc aaaa 473c
00000350: 2349 ee3a e805 98b9 3dcf 3bbc 620d 87bc
00000360: 918f b0bb 0cf8 b7ba b6e1 ce3b bf35 e0bb
00000370: 9492 38bb 823c 313c 8e59 03bc 874b cfbb
00000380: c92f 9ebb 2e52 0abc 7618 563c f058 48bc
00000390: 9c33 61bc 057e 563c 81c3 6abb 8529 04bc
000003a0: 1d28 103c 021c 433c b018 84bc 2af0 8f3c
000003b0: 4af8 483c 9925 9d3c 8086 d8ba 9411 723c
000003c0: 9237 fcba ec03 7bbc edc6 30bc bdbc 8f3b
000003d0: ad99 15bc b8b0 dcbb 7c43 f93a ca5d 193c
000003e0: c4dd 69bc 68b2 83bc 97c8 463c b24c 0ebc
000003f0: 0161 0bbc 82aa 59bc de2d 713c e969 a63b
0.006136722 0.003976643 -0.0022525592 0.009601819 0.009622512 -0.00342795 0.0139579335 -0.01435606
-0.0020483923 0.012125823 0.016216505 0.01710155 -0.015155183 -0.013327862 0.019018188 0.017496653
0.00046012702 0.002531234 0.0073490622 -0.013494579 0.0012973505 0.014993346 0.012043727 0.009060035
-0.010063795 -0.0032520154 0.0076130223 0.0064606727 0.013970019 0.00014827475 -0.01076555 0.005776422
-0.0039006623 -0.0071316743 0.017181072 -0.0020377534 -0.015115854 -0.006417196 -0.015166224 -0.0017792789
0.0068167173 0.012237874 -0.008497678 -0.011202988 -0.017010016 0.013737264 0.016315604 0.0069497707
0.011726175 0.0034627724 0.0021479903 0.008120558 0.0068019917 -0.005786932 0.008619488 -0.001617432
-0.006819407 0.0025595953 -0.0004742952 0.011949342 0.0056928815 -0.0042452165 -0.015001324 0.017441284
-0.005867141 0.013960778 -0.008918073 0.0167715 -0.00086313725 0.00037286748 0.009931263 -0.012956438
-0.0089268815 0.0028363327 0.015791008 0.0074154586 -0.005390297 -0.016271807 -0.015292335 -0.012152709
-0.0030207168 -0.014482654 0.017006958 0.0073359637 0.006075071 -0.00824699 -0.005587144 -0.010351109
-0.0008833095 0.010932853 0.0073742494 -0.011930802 -0.0111531885 -0.001990872 -0.005900207 0.01701382
0.0020049473 -0.008170353 0.013893389 -0.009932397 -0.016612368 -0.014681674 -0.0046134824 0.008081335
-0.0026199825 0.008908928 -0.010976619 0.0012674377 0.005102909 -0.010600182 0.0081489375 0.019120207
0.0062498925 -0.014010095 -0.015659666 -0.016047554 0.009970061 0.01220756 -0.0071513047 -0.0007945587
0.017210744 -0.0049348394 0.0018359042 0.011472828 -0.012478051 0.0043022614 -0.0052048345 -0.014446
-0.006911999 -0.00583817 0.017487712 -0.0114873275 -0.011850428 -0.0023199006 0.012624286 -0.015438706
0.017265758 0.0060598385 0.0061959107 -0.009408174 0.00999181 0.0042115403 -0.0052439184 -0.009224935
-0.012195758 0.010402229 -0.0067126225 0.010147915 0.009494041 0.01169478 0.010015182 -0.011722001
0.00034058222 0.0036746012 -0.0094503295 -0.0015932932 -0.0035815837 0.01627967 0.01421578 -0.010394666
0.0010554194 0.011097574 -0.0039897976 0.015397813 -0.010567064 0.014603864 -0.010375684 -0.012789481
0.0020778615 -0.01545999 -0.013650307 0.00019799985 -0.0069164103 0.007308526 -0.012612866 0.012126881
-0.0032522653 0.0013961048 0.01892827 0.000396709 0.01822781 -0.010999446 0.004499571 -0.012507603
0.01482081 -0.011982027 -0.008141899 0.006440307 -0.014107968 -0.012598668 0.0059351856 0.013969247
-0.010843609 0.01812287 -0.00024932678 0.006080608 0.00438429 -0.011630636 0.014891864 -0.0075653754
0.008784028 0.0036600563 -0.01261971 -0.007799242 0.016772563 -0.012339204 0.016183117 -0.013395882
0.016639344 -0.004595854 -0.015412842 0.012186686 0.0018179755 -0.000289961 -0.011462984 -0.016485874
-0.005388208 -0.0014035716 0.006313528 -0.0068423445 -0.002816354 0.010817649 -0.008016957 -0.0063261422
-0.004827474 -0.008442445 0.013067355 -0.012228236 -0.013745215 0.013091569 -0.0035822096 -0.00806654
0.008798626 0.011908533 -0.016125053 0.017570574 0.012266228 0.019182967 -0.0016519576 0.014774699
-0.0019242635 -0.015320759 -0.010789615 0.004386513 -0.009130877 -0.0067349337 0.0019017304 0.00936074
-0.014274064 -0.016076282 0.012132785 -0.008685278 -0.008507014 -0.013285281 0.014720408 0.0050785434

linear.bias f4 [10]
00000000: 39da bdbd e797 17bd a16b 9b3f 53e4 993f
00000010: db7b 94bd b41a c6bd a665 753a 0beb ad3e
00000020: c6e0 a83f 4b4d b6bd
-0.09270138 -0.0370101 1.2142221 1.2022804 -0.07250186 -0.09673062 0.0009361155 0.33968386
1.3193595 -0.08901461

fc3.weight f4 [4, 10]
00000000: 7b9d 89bd d4fd 473e ac7a b23f 2b3d b63f
00000010: b42b aabd 4f83 5e3e be28 3e3e ccb1 143f
00000020: cfe3 bf3f c5a3 b2bb be2c 21be aacc 39be
00000030: af09 b23f bd6c b63f 7557 303d 4fbb 14be
00000040: 30a6 eebd e872 0d3f 529e c03f 4be5 2dbd
00000050: ae1d 32be 4daa c6bd 22ed ab3f 9d6e a63f
00000060: 3ee4 813d baee 3dbe 0a4b 35be 12f2 2f3f
00000070: e947 ad3f d57c 66be b281 f8bb da94 98bc
00000080: bd47 ad3f 36f0 ad3f 207f 66be aa97 89be
00000090: 8fd4 493e 177d 2b3f ad65 b93f c923 09be
-0.0671949 0.19530421 1.3943686 1.4237417 -0.08309117 0.21729778 0.1857023 0.58083797
1.4991397 -0.0054516518 -0.15739724 -0.1814448 1.3909205 1.4251934 0.043052156 -0.14524578
-0.116527915 0.5525346 1.5048316 -0.042455 -0.17394134 -0.09700451 1.3431742 1.3002506
0.06342362 -0.18548098 -0.17704406 0.68728745 1.353757 -0.22508557 -0.0075838203 -0.018625665
1.3537518 1.3588932 -0.22509432 -0.26873523 0.19709991 0.66987747 1.4484154 -0.13392557

fc3.bias f4 [4]
00000000: c091 193f 1e4d 123f e66a 843f 53f4 183f
0.5998802 0.5714892 1.0345123 0.5974781
